data.pth (torch, 5015 bytes, 6 tensors)

l1.weight f4 [8, 54]
000000 bc 9f ab be 95 ad 97 be 3f e5 d3 be 0c ee a0 3e
       -0.33520305 -0.2962462 -0.41385838 0.31431615
000010 c5 71 a8 3e a0 90 07 3e 79 9f 6c be d3 a7 cc be
       0.328993 0.13238764 -0.23107709 -0.3997179
000020 bc 39 05 bf 5f 1a 00 bf 0f 3b e6 3e 3e 5a 27 3f
       -0.5204122 -0.5004024 0.44966933 0.65372074
000030 19 93 43 3e e2 f7 d1 3e e0 a4 46 be 0c 6f ef 3e
       0.19099082 0.41009432 -0.19398832 0.4676441
000040 ee 26 e5 3e 78 e3 3c 3d 15 d3 c0 3e 60 40 19 3f
       0.44756263 0.04611537 0.37661043 0.59863853
000050 3b ce b1 be da d4 0f 3f ad ba 2e 3f 33 a8 17 3f
       -0.34727654 0.5618416 0.68253595 0.59241027
000060 64 28 87 3e ae 92 d0 3e f4 ec e0 3e fc c7 9b be
       0.26398003 0.40736908 0.4393078 -0.30426013
000070 aa fb 3c 3e 80 cf bb be aa ee 88 3e 02 b2 05 3f
       0.18455377 -0.36681747 0.26744586 0.52224743
000080 54 ab bd ba b7 d8 ea be ed d8 91 be 6a b9 b2 3e
       -0.0014470615 -0.45868465 -0.28485814 0.34907085
000090 cc e6 f5 3d ef 42 0c bf 7a ea 21 be df 84 8d be
       0.12006912 -0.5478963 -0.15812102 -0.27640435
0000a0 80 be 70 3e 6a f7 04 3f 22 85 fb 3e b0 4f 22 be
       0.2351017 0.51940024 0.4912501 -0.15850711
0000b0 72 b4 46 3e 82 5a 37 be a2 2a 48 bf 68 30 09 be
       0.19404772 -0.1790562 -0.7819005 -0.13397372
0000c0 f5 15 91 3e f8 4e c2 3e b4 bc ad 3e b7 bc a3 3e
       0.28337064 0.37950873 0.33933032 0.31979915
0000d0 4d 8a b9 bd 0e 7c 23 bd 32 dd f5 3e e4 c6 f2 bc
       -0.09059582 -0.03991323 0.4802032 -0.029635854
0000e0 df 04 07 bf 6e 54 8b 3e 8a 3a 17 be fb ed 4f 3f
       -0.5274181 0.27212852 -0.14768425 0.81222504
0000f0 75 6c b6 bd d8 fa 7f be 6c 7e e6 be a3 51 11 be
       -0.08907405 -0.24998033 -0.45018327 -0.14191298
000100 e1 43 ea 3e 98 e9 04 be ae 69 91 be 0b 91 53 be
       0.45754912 -0.12979734 -0.2840094 -0.20660798
000110 1e a1 80 be 06 14 0f bd d7 8d 8c 3e 72 f9 2b 3f
       -0.25122923 -0.034931205 0.27451965 0.671775
000120 3c 2a 05 3f 78 a8 47 3e 11 a4 f7 3e a4 af b2 3e
       0.5201757 0.1949786 0.4836736 0.34899628
000130 9d 16 be 3e c6 dc 14 be 66 01 5d be 6e 5e ae 3e
       0.37126628 -0.14537343 -0.21582565 0.3405642
000140 f1 e3 df 3e 4f 75 7d be d9 7c aa 3e 61 d3 8a be
       0.43728593 -0.24751781 0.33298376 -0.27114394
000150 87 1a 04 3f 23 c7 a8 bd c1 9a 04 3e 21 3f b1 be
       0.5160298 -0.08241107 0.12949659 -0.34618476
000160 1f 66 91 be 29 be 6a be 92 e6 c4 3e 61 f4 0f bf
       -0.28398225 -0.22924103 0.3845716 -0.5623227
000170 11 86 aa bd 73 d9 a1 bd ea 2d 20 3f e1 cc c7 3e
       -0.083263524 -0.07902803 0.6257006 0.39023498
000180 50 9a 04 be 58 73 e4 bd b8 75 ba be 7c 1b 90 be
       -0.1294949 -0.111548126 -0.36417937 -0.2814597
000190 6c 4f dd 3e aa fb ca 3e 71 c1 ea 3e 38 41 12 3f
       0.43224657 0.3964513 0.4585071 0.57130766
0001a0 af 47 0c bd 4c 5e f0 3e 06 d6 74 be 24 93 bb 3e
       -0.03424805 0.46946943 -0.23909768 0.36635697
0001b0 de 15 0c 3f 0b 4e 86 3e 68 f5 82 3e 4f 42 b1 be
       0.54720867 0.26231417 0.25577855 -0.34620902
0001c0 bd 3b 16 bf 92 ae 6f 3f 36 ca 12 bd d4 0c 45 be
       -0.58684903 0.9362575 -0.035837375 -0.19243175
0001d0 32 93 e7 3c b0 a9 70 3d 73 7b 71 be a3 a4 39 3f
       0.02826843 0.058755577 -0.23582248 0.7251684
0001e0 f4 b5 34 3d 9f de 43 3f 61 66 a7 ba 7e c4 09 3f
       0.044118837 0.7651157 -0.00127716 0.5381545
0001f0 91 cf c3 be 0e c9 58 3f 19 cb 2b be e5 52 1e bf
       -0.38244298 0.84681785 -0.16776694 -0.61845237
000200 91 d6 e8 3e 01 4a 1e bf 7b 48 1e bf 1f d1 6e bc
       0.454762 -0.6183167 -0.61829346 -0.014576226
000210 b8 2d da 3e 57 19 d7 bd 73 af 8d be 4e ea d5 be
       0.42613006 -0.1050288 -0.2767292 -0.41780323
000220 40 86 6e 3c 73 57 05 bf 2f 8b 0d 3f 00 1b 2f 3f
       0.014558375 -0.5208656 0.552905 0.68400574
000230 74 36 ed 3e cd 69 8a 3e fd ef 2a be 68 a3 db 3e
       0.46330607 0.27033845 -0.16693111 0.42898107
000240 48 3b d8 bd ae 9f d0 bd 46 87 b3 bd 4a a8 21 be
       -0.10558182 -0.101867065 -0.08766036 -0.15786853
000250 9b c0 02 3f 66 3e 87 be 72 9d 0b 3f 20 ff 1d be
       0.5107514 -0.26414794 0.5453712 -0.15429354
000260 6d ee 11 3f 6f 94 97 be 55 61 60 3f ac 52 b9 3e
       0.57004434 -0.29605433 0.87648517 0.36195886
000270 08 24 2b be f3 de d2 be 4a 10 c7 3e 9f 36 6d be
       -0.16712964 -0.41185722 0.38879615 -0.23165368
000280 a1 68 25 be 61 0e 5f 3c 86 8d dd 3e 6c 5f 25 3f
       -0.16153194 0.013614268 0.43272036 0.6459873
000290 de a9 b5 be c1 f0 16 be 73 92 da 3d e3 15 7f be
       -0.3548116 -0.14740278 0.10672464 -0.24910693
0002a0 3c 58 b1 3c 53 ab 9c be 32 63 19 bf 22 c5 b7 be
       0.021648519 -0.3059946 -0.59916985 -0.35892588
0002b0 2f e0 44 3d c8 bf 89 be df 4e 97 3e 3f fc 12 be
       0.04806536 -0.2690413 0.2955236 -0.14354037
0002c0 fa bc 1d 3f 57 8e 02 be 3b d8 ef 3c c8 d1 b0 be
       0.6161648 -0.12749611 0.029277911 -0.3453505
0002d0 c0 d5 00 3f 79 de 56 3d 12 63 1d 3f 02 43 0b 3e
       0.50326157 0.05245826 0.61479294 0.1359978
0002e0 4c 08 1d bd 13 c8 d1 3d 52 d6 69 be dd 56 55 be
       -0.03833799 0.10243239 -0.22835663 -0.20833917
0002f0 db f9 0c 3f 8b 4d 54 3f cd ac d2 3e 7b aa 34 3f
       0.5506875 0.8293082 0.41147462 0.7057263
000300 e8 2b a0 be 76 1a 87 bc 47 66 1f 3e 52 58 de be
       -0.31283498 -0.01649211 0.1556636 -0.43426758
000310 d0 86 41 3f d4 3b 98 bd d9 a2 a6 3e 18 ed 00 bf
       0.7559633 -0.07433286 0.32546118 -0.50361776
000320 a0 82 a2 bd a2 84 33 be 32 91 c3 be c3 4c fb 3e
       -0.07935071 -0.17531064 -0.38196713 0.49082002
000330 45 32 73 be dd 9f 14 3f af e9 b0 be 56 79 1b 3f
       -0.23749645 0.5805643 -0.34553286 0.6073202
000340 a9 a1 72 3f 56 73 c6 3e dc 6f c2 3e 4f c8 28 3f
       0.94777924 0.3875987 0.37975967 0.65930647
000350 9a 8b 6c be 88 23 a8 3e 1f e4 22 be 7f fc b9 3e
       -0.23100129 0.32839608 -0.15907334 0.36325452
000360 36 ca 9b bd a1 ba 8e be 06 71 e4 3e c2 d6 91 3e
       -0.07606928 -0.27876762 0.4461748 0.2848416
000370 d8 0f c2 3e a1 d6 c2 3e 61 b4 a6 3e 32 c5 ec 3e
       0.37902713 0.38054374 0.32559493 0.46244198
000380 b7 c6 fe 3e 76 a8 91 3e 1a eb c3 3e 14 82 0a 3f
       0.49760982 0.28448838 0.38265306 0.54104733
000390 bf ad 7c 3c c2 86 ff 3e 5b 06 68 be 2e 3b b2 3e
       0.015422284 0.499075 -0.22658674 0.34810776
0003a0 31 7e e7 3e b1 6e 6f 3e 91 fd 5a be a4 52 97 3e
       0.45213464 0.23382069 -0.2138579 0.29555237
0003b0 a6 29 0d be e1 67 1a 3f cd 18 1b 3f cb e7 c9 3e
       -0.13785419 0.60314757 0.6058472 0.39434657
0003c0 2a cb de 3e 17 5d a8 3e b9 9d af be 18 4a f2 bd
       0.43514377 0.32883522 -0.3430002 -0.118305385
0003d0 54 63 40 be 79 1c 8c be bf 34 28 3e 91 7a 08 3f
       -0.1878789 -0.27365473 0.16426371 0.5331202
0003e0 e2 25 1d 3e df af 04 3f a1 9e a5 bd d3 27 e6 3e
       0.15346482 0.5183086 -0.08086897 0.44952258
0003f0 1c 81 81 bd 96 45 f9 3e e5 36 ea 3e 7b f0 f3 3e
       -0.06323454 0.48685902 0.45745006 0.4764441

l1.bias f4 [8]
000000 98 01 51 3f 4d 9b 6d 3f 97 4e 1e 3f 67 07 22 3f
       0.81643057 0.92815095 0.6183867 0.63292545
000010 77 0d 3c 3f ed 91 ef 3e a0 8b 07 3f 69 e5 3d 3f
       0.73458046 0.4679102 0.52947426 0.7417818

l2.weight f4 [8, 8]
000000 ac 27 dd bd c2 3d 2c 3e 27 d4 8c 3e 88 28 72 bd
       -0.107985824 0.16820434 0.2750561 -0.059120685
000010 f0 ee b0 be b2 b9 42 3e 75 cc 9d be b0 88 30 bd
       -0.34557295 0.1901615 -0.3082005 -0.043099105
000020 f9 e9 ab 3f 75 ca bc 3e 33 f8 3e 3f d8 81 ae bf
       1.3430778 0.36873212 0.7459747 -1.3633375
000030 ef 89 a3 3f 15 0d 66 3f a8 90 c3 be a4 05 a7 3f
       1.2776469 0.8986371 -0.381963 1.3048596
000040 25 c3 40 3f 71 fc 96 3f be 56 54 bf cc 6c 77 3f
       0.75297767 1.1795789 -0.8294486 0.96650386
000050 73 c1 45 be d4 16 4e be 8b 62 5a be 59 e4 a9 3e
       -0.19312076 -0.20125896 -0.21326654 0.33182028
000060 48 9f 55 bf 54 67 11 bf c2 5e 3e bf 6e 37 66 3f
       -0.8344617 -0.5679829 -0.7436334 0.8992833
000070 c0 68 79 be 6a f3 e5 bd e6 12 86 3e 5b f1 e9 3e
       -0.24356365 -0.11228068 0.26186293 0.45691952
000080 52 c8 00 3e da eb b5 3d 60 a6 a7 bd 79 8e dc bc
       0.12576416 0.08882876 -0.081860304 -0.026923405
000090 87 bf 32 be 07 d0 94 3e 69 6a 1d 3e 93 f2 dc be
       -0.17455874 0.29064962 0.15372624 -0.4315382
0000a0 70 cb 9f bf f0 58 3a 3f 37 4f 94 3f 65 d3 20 3e
       -1.2483959 0.7279196 1.1586674 0.1570564
0000b0 cc b0 60 3e 72 57 84 be 23 57 9d 3f e4 c7 58 3e
       0.21942443 -0.25847965 1.2292217 0.21170002
0000c0 06 8d 1b bf 72 6d dc be 33 1c b3 bf 6a be 29 3e
       -0.6076206 -0.4305225 -1.3992981 0.16576543
0000d0 ca c7 33 3f 12 ac 75 3f 13 ca 7b 3f 64 0f 71 3f
       0.7022673 0.95965683 0.98355216 0.9416411
0000e0 56 67 43 3e 99 3f 9e 3f 10 cc 62 3f 5f 57 8d 3f
       0.19082388 1.2363158 0.88592625 1.1042289
0000f0 34 49 62 be 0e 7d 66 bf 98 e0 18 3f f5 54 8c bf
       -0.22098237 -0.9003457 0.597177 -1.0963427

l2.bias f4 [8]
000000 6f e5 24 be f6 27 54 3f 10 37 5f 3f 27 53 d5 bd
       -0.16103147 0.82873476 0.87193394 -0.10416251
000010 8b eb dd be 6a 91 ba 3e 49 49 ae 3e e7 ca 17 3e
       -0.43343768 0.36439067 0.34040287 0.14823495

l3.weight f4 [7, 8]
000000 30 54 6a bd 2a 04 40 3f 56 32 b3 bf 2c 5d 58 bf
       -0.057209194 0.75006354 -1.3999736 -0.8451717
000010 8c 2a 76 3e 75 61 96 bf b1 f7 2c bf f0 2f 93 bf
       0.24039668 -1.1748492 -0.6756545 -1.1499004
000020 36 1c 22 3e db fa 34 bf cf 7a 18 be 71 11 ca 3e
       0.15831074 -0.70695275 -0.14890598 0.39466432
000030 b0 a5 25 be b6 1e 58 3d 7f 71 9e 3e 7e b5 35 bf
       -0.16176486 0.052763663 0.30945966 -0.7098006
000040 41 75 8f be 6e 0f 25 3e 3a 67 c3 3d 1c c7 2c bf
       -0.28019145 0.16119167 0.09541173 -0.67491317
000050 27 2c a9 be a9 e6 ef 3e 30 0d ad bf 3c b3 37 be
       -0.33041498 0.46855667 -1.351965 -0.17939466
000060 f4 09 48 be cc 66 97 3e 07 4c 77 3f bd 53 94 bf
       -0.19535047 0.29570615 0.96600384 -1.1588055
000070 8d e4 18 3e fe 18 d7 bf 62 5b 9b 3b f0 a1 b0 bf
       0.14930935 -1.6804502 0.0047411183 -1.3799419
000080 9a 92 56 3e 9a 50 6c bf e8 dc 56 3f 61 cb 2f bf
       0.20954362 -0.9231049 0.83930826 -0.68669707
000090 6c e1 4d be 6d 19 61 bf 7e 32 78 bf 0e 81 f7 3e
       -0.20105523 -0.8792942 -0.96952045 0.48340648
0000a0 d4 13 f3 bd e8 45 e3 3d a3 f7 af bf e8 a3 59 bf
       -0.11869016 0.11097318 -1.3747448 -0.85015726
0000b0 10 c9 97 be 11 c4 fa 3d 23 6d 12 3f c8 28 84 bf
       -0.29645586 0.12244428 0.5719778 -1.0324945
0000c0 02 60 6f 3e 1d 75 a3 bf 7e 21 b4 be 4d f6 81 bf
       0.23376468 -1.2770115 -0.35181803 -1.015329
0000d0 ed 3c c9 3d f6 1d 64 3f b1 ac 53 bf a6 0d 32 3f
       0.09826074 0.89108217 -0.8268538 0.69552076

l3.bias f4 [7]
000000 43 c3 dc 3d 3c 90 19 be 3a 9e 4f 3e 46 9f 5f 3c
       0.10779431 -0.14996427 0.20275202 0.013648814
000010 27 50 4c 3e c2 6a 54 bd d8 51 5c 3e
       0.1995245 -0.051859625 0.21515596
